utils/quantization_layer_init/trilinear_init.pth (torch_old, 5170 bytes, 5 tensors)

mlp.0.weight f4 [30, 1]
000000 d4 31 10 3f 0c 4a 47 c0 dd ac de 3e ea d7 9a be
       0.5632603 -3.1138945 0.4349126 -0.30242854
000010 de 60 46 be 41 2d 5a bf 17 f2 31 3f b9 98 96 3f
       -0.1937289 -0.852253 0.69510025 1.1765357
000020 5a 63 87 3e 49 31 3a bf 97 d9 d3 bf 8f 46 93 bf
       0.26442987 -0.72731453 -1.6550778 -1.1505908
000030 7f 35 27 be fc 8f c7 bf a4 99 18 c0 8e 6b 8d bf
       -0.16329001 -1.5590816 -2.3843775 -1.1048448
000040 aa c2 8d bf b2 31 73 3f 73 7e b1 3f 12 25 a0 3e
       -1.1075032 0.94997704 1.3866714 0.31278282
000050 1b d1 ec bf 4a 5c 94 3f 56 27 53 3f 92 83 9a 3f
       -1.8501314 1.1590664 0.82481897 1.2071402
000060 76 1d 84 3e ee 75 1b c0 e8 4d ad 3d b8 01 9e bd
       0.25803727 -2.4290729 0.08462125 -0.077151716
000070 c2 4b a8 bf 21 8a 67 3e
       -1.314812 0.22611286

mlp.0.bias f4 [30]
000000 80 cd fa be 1a a9 60 3e 80 d5 66 bf 0f d3 bb 3e
       -0.4898491 0.21939507 -0.90169525 0.36684462
000010 48 3a 6c 3f cc 03 8d bd 0b a1 5e bf 4a 7c ba bd
       0.9227643 -0.0688549 -0.8696448 -0.091057375
000020 81 33 cf be c2 e7 f2 be e8 0b f0 3d af bb fc 3e
       -0.40468982 -0.47442442 0.11721021 0.4936194
000030 b0 4e 44 bf cd dd d5 3d ab 5e 3f bb ba a8 ad bd
       -0.7668257 0.10442696 -0.0029200714 -0.08479448
000040 aa 45 88 bf 11 a2 55 b9 cb f9 7b 3f 92 2a 84 be
       -1.064626 -0.00020373637 0.9842803 -0.2581373
000050 e2 4c 06 3e fb c4 89 39 f6 fd 02 3f 5d 12 e8 3d
       0.13115266 0.00026277438 0.51168764 0.113316275
000060 10 e3 10 3f e8 6b 2f 3e cb 9e 20 bf 94 ac c5 bd
       0.5659647 0.17131007 -0.627423 -0.09652057
000070 4f ff cf bd 2a 7a 4f be
       -0.10156118 -0.20261446

mlp.1.weight f4 [30, 30]
000000 bd 7e 65 3e c7 93 71 be 49 39 61 3c 66 d4 c2 bd
       0.22411628 -0.23591529 0.013746568 -0.09513168
000010 28 6f c5 bd 20 f6 9d 3d 04 67 eb bc 47 ee 3d 3e
       -0.09640342 0.0771296 -0.028735645 0.18547927
000020 a1 b3 eb 3d 12 ab 3f 3d 1b 7f 71 be 9f 4c 6a be
       0.11508871 0.046794005 -0.23583643 -0.22880791
000030 a6 73 87 3e dc 19 2b be 4c f3 86 bf 7c 2a 43 3f
       0.2645542 -0.16709083 -1.0542998 0.762367
000040 0c 48 76 bc a3 4b 60 be fc d1 d5 bc 5c 19 a3 bd
       -0.015031826 -0.21903853 -0.026101105 -0.07963821
000050 5d ec 63 bd 89 ae 2d bd 02 db 41 bd 16 47 b1 3c
       -0.055645335 -0.042402778 -0.047328003 0.021640342
000060 53 47 62 be 3a db ee bd c5 72 87 3e 91 aa ca 3d
       -0.2209752 -0.11662908 0.2645475 0.09895814
000070 62 73 c5 3e ff 59 9d 3d 49 0d c9 3b 60 05 c2 be
       0.38564593 0.07683181 0.006135617 -0.37894726
000080 22 84 38 3c 85 f1 f0 3a dd 38 12 bb 67 b4 63 be
       0.011261972 0.0018382525 -0.0022311725 -0.22236787
000090 da 09 73 3e 7f 6d b4 3e b6 c6 74 bc fb 13 92 3d
       0.23734227 0.3523979 -0.0149399545 0.07132717
0000a0 cf 46 b1 be 33 9e 93 be dd b3 4c 3c 1f ec 89 be
       -0.34624335 -0.28831634 0.012494055 -0.2693796
0000b0 25 4a 69 bf 41 42 24 3e e6 c5 e6 3c 06 e6 1e 3e
       -0.9112876 0.16040899 0.028170537 0.15517434
0000c0 b7 da 87 3b f7 ee 08 3e ca 1a 84 bd 3d fc ba bc
       0.004145946 0.13372408 -0.06450422 -0.022825355
0000d0 1e cd e1 3c dd 91 80 3e df c0 d0 3c e0 b3 19 bc
       0.027563628 0.25111285 0.025482593 -0.009381264
0000e0 b5 79 4a 3e e8 a4 d4 bd 5c 27 17 3e d6 cf 97 3d
       0.1977299 -0.10383016 0.14761108 0.074126884
0000f0 3a 9b 58 be 42 9f 8b bf 3b 12 4b be f3 63 aa 3d
       -0.21152964 -1.0907977 -0.19831173 0.08319845
000100 84 d3 ba 3e 6b 29 c0 be 2e 47 58 be eb 10 9a 3f
       0.364895 -0.375316 -0.21120903 1.2036413
000110 f6 0b 0e be d8 2a e2 be 5e 3d 09 bf ff a8 95 3d
       -0.1387175 -0.44173312 -0.53609264 0.07307624
000120 ae 54 76 be 69 81 5c bf 02 b0 25 c0 9d da d4 be
       -0.2405574 -0.86134964 -2.5888677 -0.4157304
000130 07 f1 11 bf fa 5f 2a be 42 77 bc 3e 57 86 74 be
       -0.57008404 -0.16638175 0.36809736 -0.23879372
000140 01 8c b2 be a4 95 bd be 02 cb 27 3f f4 35 21 3f
       -0.3487244 -0.3702823 0.6554414 0.6297295
000150 8e d3 9f 3e 88 3c 69 bf ce 7f 79 be e9 ce 9f be
       0.3121609 -0.9110799 -0.2436516 -0.31212547
000160 aa 25 10 bf 8d 03 4b be 0c 2c 13 bc 86 d4 01 bd
       -0.5630747 -0.19825573 -0.00898267 -0.03169682
000170 3c cb b3 bd 98 26 51 be 44 43 0c be c6 0e b7 bc
       -0.08778998 -0.20424879 -0.13697535 -0.022345912
000180 3d cb 73 3d e7 1d 1f 3d 38 2a ee 3d 63 29 0a 3e
       0.059519995 0.038846876 0.11629146 0.1349235
000190 1c 20 ac 3d 57 2b 93 3d 47 50 ce bd 56 3a 6c be
       0.08404562 0.07186001 -0.100739054 -0.23069128
0001a0 74 8b aa 3d 4a 2e 5e 3d ca f5 1f 3e a3 82 f9 3d
       0.0832738 0.054243363 0.15621105 0.1218312
0001b0 2f c3 2e bc a5 69 e3 bd 0b 94 35 be 02 15 e7 bd
       -0.010666653 -0.111041345 -0.17732255 -0.11283304
0001c0 ca fe da 3c 1f b4 1b 3d 27 b1 ae bd 37 7e fb 3d
       0.026732821 0.038013574 -0.08529883 0.12279933
0001d0 7c 72 c2 bd f7 8f 16 bd 44 53 96 be b6 c4 fe bd
       -0.094944924 -0.03675839 -0.29360402 -0.124398634
0001e0 93 74 26 3e 01 fb e2 bc 7c d8 16 3c 35 00 70 3d
       0.16255407 -0.027707579 0.009206887 0.058593947
0001f0 00 04 b4 3d 92 15 bb bd 61 05 07 bd 40 46 34 be
       0.087898254 -0.091349736 -0.032964114 -0.17604923
000200 7d c9 0f 3e d1 f8 0d bd ac fa 37 3d 5a 67 3d bd
       0.14041705 -0.034661118 0.044916794 -0.04624114
000210 67 62 02 3e d6 ab 1c 3e 25 84 86 3e ae a7 31 be
       0.1273285 0.15299925 0.26272693 -0.17349121
000220 d8 7f 9f 3c b2 a3 98 3d 30 6d 9c 3c c2 e2 7e 3c
       0.01947014 0.074530974 0.019095033 0.015556993
000230 47 1c 6d bd 18 15 0e 3e b4 fc f0 bd 90 9d 02 be
       -0.057888296 0.13875234 -0.11766949 -0.12755418
000240 f5 b7 ec 3d d2 1d 4e 3d 1c 70 9f 3d 8d c1 17 bc
       0.115585245 0.050321408 0.07785055 -0.009262455
000250 59 60 98 be 83 8a 1e 3e 85 2c 13 be 34 16 47 bd
       -0.29761007 0.15482526 -0.14372452 -0.04860516
000260 8a d1 17 3d 71 01 d4 bc f3 96 f7 bd 03 eb e2 bb
       0.037065066 -0.025879594 -0.12089338 -0.0069249882
000270 ac 6d 30 3e 75 95 04 bf cc cc e5 bc a6 c5 ee 3d
       0.17229337 -0.51790553 -0.028051756 0.11658792
000280 63 ed 1a 3e 31 4c 23 3e 48 f1 be 3d 32 ac 78 3e
       0.15129618 0.15947033 0.093233645 0.24284437
000290 d7 8d d6 3e 63 58 07 bf 14 41 e4 bd 07 b1 b3 3e
       0.4190509 -0.5286924 -0.11145225 0.35096
0002a0 40 12 96 bd a6 79 2c be f1 d6 43 bd de e6 bb 3e
       -0.073277 -0.1684328 -0.047812406 0.36699575
0002b0 99 ad f0 3c 2c 5a 97 be dc 81 2c 3d 76 e4 35 3e
       0.029379653 -0.29560983 0.04211603 0.17762932
0002c0 f0 df 89 bd 51 63 25 3d 50 1e e3 be 4b d5 b5 bb
       -0.06732166 0.04037792 -0.44359064 -0.005549108
0002d0 34 36 b8 3c 42 91 ca bf 0a 68 e3 bd 3a 78 df 3d
       0.022486784 -1.5825579 -0.11103828 0.10911603
0002e0 ee 1e 97 3d d9 26 02 bf d8 78 88 be e6 d6 c7 be
       0.07378946 -0.50840527 -0.26654696 -0.39031142
0002f0 a3 d0 ba bd a0 b6 dd bd 60 eb 7a bf 9e 7a 1c be
       -0.091218255 -0.108258486 -0.98015404 -0.1528115
000300 55 44 50 be e0 70 82 bf 7f 3d d7 3d 0a 12 c5 be
       -0.20338567 -1.0190697 0.10509776 -0.38490325
000310 39 d1 ec bd 45 17 8f 3e 86 8f 83 3e d8 4f 25 3c
       -0.115633436 0.2794744 0.25695437 0.010089837
000320 c5 dc 04 bf 37 34 c1 3e d9 49 22 3e 11 a7 c4 3d
       -0.5189937 0.3773515 0.15848483 0.09602178
000330 d1 7e 77 3e cd f1 85 bf 33 ee e8 bd ff 3d 1f be
       0.2416947 -1.0464417 -0.11373558 -0.15550993
000340 e6 c7 73 be 5a d8 14 bd 3b c4 0d be ad cd f4 bf
       -0.23806724 -0.03633914 -0.13844387 -1.9125267
000350 fd d6 25 be 8a 2a 64 3d 30 45 5e 3e d3 d5 18 bf
       -0.16195293 0.05570463 0.2170608 -0.5970127
000360 e5 eb 4a 3d 48 7c 9b be 3e d1 47 be 62 c3 d6 bc
       0.049541373 -0.30368257 -0.19513413 -0.026216213
000370 e3 2a 86 bf 3d e5 82 bc ed ea 71 be d3 19 a4 bf
       -1.0481838 -0.01597845 -0.23624773 -1.2820381
000380 86 fe f3 3e 4c c2 06 bf 12 9d 5e be 45 cb cc 3e
       0.47655123 -0.52640224 -0.21739605 0.39998832
000390 6d a0 65 3e 63 f5 30 bd c2 4c 5d bf 71 74 c5 3e
       0.22424479 -0.04320277 -0.8644525 0.385654
0003a0 5c 15 49 3e 36 11 0f 3d fc 05 42 3e 4a 7a ae bf
       0.19637054 0.034928523 0.18947595 -1.363107
0003b0 58 1c af bc b9 0e c8 bd 47 86 e1 be 09 03 1a bd
       -0.02137582 -0.09768433 -0.44047758 -0.03760055
0003c0 46 92 5d 3c 96 af 43 be 80 e5 c6 bd 73 6b 35 3d
       0.013523644 -0.1910995 -0.097117424 0.044291925
0003d0 d4 bf 4c be f6 8f e9 bd 85 43 27 3e 7b 6a 36 3f
       -0.19995052 -0.114044115 0.1633435 0.71256226
0003e0 ae 2a 8e bd dd 79 17 be 0c de f0 bd b2 fc b9 3c
       -0.06941734 -0.14792581 -0.11761102 0.022703502
0003f0 24 77 7c 3d 85 8d 95 bd aa 78 c4 be 9d ca 61 3e
       0.06163706 -0.07302383 -0.3837331 0.22049947

mlp.1.bias f4 [30]
000000 25 88 ed 3c d3 29 3a 3b c6 5d 79 3e b7 b7 12 3d
       0.028995583 0.0028406277 0.24352178 0.035819735
000010 bb f4 17 3e 27 1b 1d 3e 7d 8b 51 3e 37 18 90 3e
       0.14839451 0.15342389 0.20463367 0.28143474
000020 f5 38 e9 bd a5 1c 32 be 0d 56 4e bd fb b1 06 be
       -0.11387817 -0.1739374 -0.050375033 -0.13153832
000030 af 5a 05 be 53 44 f3 bd 49 26 ef 3d 64 ed 0c be
       -0.13022874 -0.11878266 0.11677224 -0.13762432
000040 19 c2 dc bd 5b da e8 bd 48 23 55 3e da 30 24 be
       -0.10779209 -0.11369773 0.2081424 -0.1603426
000050 68 47 e5 3d b6 e1 4a be 0a 47 1a bd db 44 cf 3d
       0.1119526 -0.19812664 -0.037665404 0.10120555
000060 46 47 06 be 60 ad 16 3e 64 48 22 be e1 f9 47 3d
       -0.13113126 0.14714575 -0.15847927 0.048822287
000070 93 5f 71 bd f6 0e f3 3b
       -0.058929037 0.007417555

mlp.2.weight f4 [1, 30]
000000 80 32 19 3e bc bb 0d 3e 0b 16 1e 3f 87 e0 e7 bc
       0.1496067 0.13841146 0.61752385 -0.028305305
000010 56 35 39 bd fb 61 7d be 7c 90 24 bf d4 f8 4d bf
       -0.04521688 -0.24744408 -0.64282966 -0.80457807
000020 3f 61 b1 3d ea b9 ec 3d 28 42 59 3d 0b b4 3b be
       0.08661126 0.11558898 0.053041607 -0.183304
000030 da 98 01 bd 48 30 5e be 17 87 4c be c4 9d e2 bb
       -0.03163991 -0.21698105 -0.19973408 -0.00691578
000040 3d 41 96 bd ec c2 69 3d c5 d9 b2 3e 3c b0 76 3d
       -0.07336662 0.057070658 0.3493177 0.060226664
000050 d3 53 17 be 52 7c e0 bc cb 8d ee bc 9b f4 70 3d
       -0.1477807 -0.02740303 -0.029120347 0.058827024
000060 6e 26 85 bd 25 55 ac 3e d2 77 7f 3b ef 77 ac bd
       -0.065014705 0.3365871 0.003898133 -0.08421313
000070 08 06 b7 be e1 5a eb 3c
       -0.3574679 0.028729858
